dataProcess/AI/septimbre_44100.onnx (onnx, 689994 bytes, 35 tensors)

septimbre_amt.cqt.cqt_kernels f4 [72, 1, 277]
00000000: 83a8 4eb4 9f03 36b5 e143 dfb4 042b 5b35
00000010: 6749 e935 86c5 9334 86a3 46b6 8b65 6cb6
00000020: e2d0 c435 07ae ef36 26ee 9a36 b15c d7b6
00000030: 03d5 57b7 404b 37b6 feaf 8337 b6b5 9837
00000040: 79a7 a6b6 6aa4 f4b7 227a a4b7 b6dc b037
00000050: ffd1 3a38 5763 4b37 0e2c 44b8 d214 6eb8
00000060: 65bf 2137 8c32 a838 52f2 7238 b4b1 50b8
00000070: 188e f1b8 678f 20b8 ccba e338 2551 1339
00000080: 2f63 40b7 f813 3db9 4976 13b9 39f0 ca38
00000090: 03b1 8339 c658 ce38 50b5 61b9 ccf9 9cb9
000000a0: bf29 3235 1535 b939 640b 9c39 305b 2ab9
000000b0: eed6 fdb9 f9b7 64b9 e978 c639 bb5f 153a
000000c0: 6091 2938 9805 23ba 0955 14ba 8785 7b39
000000d0: 17c6 5d3a 63db e139 fb27 1eba 15ab 81ba
000000e0: f4ae 10b9 c05b 833a eb0e 813a 4ab1 a3b9
000000f0: 5a7e b2ba 8de0 4aba 3b6f 673a a949 d03a
00000100: 5062 aa39 a92f c4ba 1b35 d0ba afc1 b839
00000110: aace 053b 7027 a83a 29c0 9cba 2c50 1cbb
00000120: 4ce6 26ba b2ee 083b 7c23 1d3b 3880 aab9
00000130: 5153 3cbb 70ec 01bb 3c74 c53a accb 5c3b
00000140: d19c 903a 83b9 33bb 9e6b 5fbb 172e 4a39
00000150: 1f3b 7a3b f08f 3c3b b19f e7ba 1087 93bb
00000160: 443e e4ba 50b3 5e3b 535c 963b ceef a138
00000170: 6a98 9dbb d13b 81bb f686 fc3a 563e bb3b
00000180: 8dcb 263b ad9c 82bb 8051 c0bb bcd2 03ba
00000190: b1bf bc3b 9f03 a83b 7132 feba 6960 e2bb
000001a0: b61f 64bb 933f 913b 8d6b ea3b e186 8d3a
000001b0: 7868 d7bb cfd6 cfbb 43cb e83a 2fa2 023c
000001c0: 2703 933b 9e33 99bb c771 08bc d4e5 e8ba
000001d0: 3495 ea3b f339 f53b 79b2 bbba 7c25 10bc
000001e0: 5570 b3bb 7e28 993b 9aed 173c 9a4a 263b
000001f0: 9cf8 f3bb 0c3b 0abc 3407 743a e639 183c
00000200: 1920 d03b 0bd5 90bb bdfb 21bc 0354 57bb
00000210: c460 f23b a715 153c ee4d a9b9 6df0 19bc
00000220: 87f1 e5bb f50e 813b 4378 253c f50e 813b
00000230: 87f1 e5bb 6df0 19bc ee4d a9b9 a715 153c
00000240: c460 f23b 0354 57bb bdfb 21bc 0bd5 90bb
00000250: 1920 d03b e639 183c 3407 743a 0c3b 0abc
00000260: 9cf8 f3bb 9a4a 263b 9aed 173c 7e28 993b
00000270: 5570 b3bb 7c25 10bc 79b2 bbba f339 f53b
00000280: 3495 ea3b d4e5 e8ba c771 08bc 9e33 99bb
00000290: 2703 933b 2fa2 023c 43cb e83a cfd6 cfbb
000002a0: 7868 d7bb e186 8d3a 8d6b ea3b 933f 913b
000002b0: b61f 64bb 6960 e2bb 7132 feba 9f03 a83b
000002c0: b1bf bc3b bcd2 03ba 8051 c0bb ad9c 82bb
000002d0: 8dcb 263b 563e bb3b f686 fc3a d13b 81bb
000002e0: 6a98 9dbb ceef a138 535c 963b 50b3 5e3b
000002f0: 443e e4ba 1087 93bb b19f e7ba f08f 3c3b
00000300: 1f3b 7a3b 172e 4a39 9e6b 5fbb 83b9 33bb
00000310: d19c 903a accb 5c3b 3c74 c53a 70ec 01bb
00000320: 5153 3cbb 3880 aab9 7c23 1d3b b2ee 083b
00000330: 4ce6 26ba 2c50 1cbb 29c0 9cba 7027 a83a
00000340: aace 053b afc1 b839 1b35 d0ba a92f c4ba
00000350: 5062 aa39 a949 d03a 3b6f 673a 8de0 4aba
00000360: 5a7e b2ba 4ab1 a3b9 eb0e 813a c05b 833a
00000370: f4ae 10b9 15ab 81ba fb27 1eba 63db e139
00000380: 17c6 5d3a 8785 7b39 0955 14ba 9805 23ba
00000390: 6091 2938 bb5f 153a e978 c639 f9b7 64b9
000003a0: eed6 fdb9 305b 2ab9 640b 9c39 1535 b939
000003b0: bf29 3235 ccf9 9cb9 50b5 61b9 c658 ce38
000003c0: 03b1 8339 39f0 ca38 4976 13b9 f813 3db9
000003d0: 2f63 40b7 2551 1339 ccba e338 678f 20b8
000003e0: 188e f1b8 b4b1 50b8 52f2 7238 8c32 a838
000003f0: 65bf 2137 d214 6eb8 0e2c 44b8 5763 4b37
-1.9246549e-07 -6.780555e-07 -4.1586375e-07 8.1646454e-07 1.7381216e-06 2.75246e-07 -2.9599482e-06 -3.5225846e-06
1.4663931e-06 7.1430145e-06 4.617282e-06 -6.41829e-06 -1.2864594e-05 -2.7312926e-06 1.569837e-05 1.8204428e-05
-4.966682e-06 -2.9163628e-05 -1.9607196e-05 2.1083612e-05 4.454143e-05 1.2122872e-05 -4.677107e-05 -5.6763012e-05
9.64091e-06 8.020279e-05 5.7922975e-05 -4.9756563e-05 -0.000115182425 -3.8280526e-05 0.00010858997 0.00014049241
-1.1467185e-05 -0.00018031884 -0.00014063077 9.6768556e-05 0.0002511815 9.839381e-05 -0.00021525216 -0.00029940752
6.6370916e-07 0.000353255 0.00029763125 -0.00016246433 -0.00048416056 -0.0002181231 0.00037855588 0.0005698164
4.042813e-05 -0.000621879 -0.0005658423 0.00023986968 0.00084599986 0.000430788 -0.0006033179 -0.0009892905
-0.00013798085 0.001002185 0.0009846365 -0.00031221873 -0.0013617978 -0.0007739149 0.00088285253 0.0015891093
0.00032498175 -0.0014967817 -0.0015884967 0.0003523952 0.002041737 0.0012829136 -0.0011959124 -0.0023851497
-0.00063667144 0.0020894227 0.002397745 -0.00032520457 -0.0028736184 -0.0019824766 0.0015064548 0.0033690734
0.0011033063 -0.0027423806 -0.0034091244 0.00019281391 0.0038182212 0.0028772317 -0.0017671493 -0.0045021847
-0.0017413576 0.003398139 0.0045886426 7.721745e-05 -0.004809429 -0.0039438982 0.0019266296 0.005714218
0.0025450916 -0.0039859624 -0.0058690906 -0.0005028655 0.005760156 0.005127385 -0.0019393695 -0.0069084656
-0.003480894 0.0044326275 0.0071539343 0.0010797643 -0.006573733 -0.006342746 0.0017760772 0.007973238
0.00448646 -0.0046753427 -0.008327908 -0.001776869 0.0071588997 0.0074837147 -0.0014320157 -0.0087979995
-0.0054760375 0.0046740165 0.009272957 0.0025374056 -0.007445408 -0.008436929 0.00093089347 0.009291148
0.0063514826 -0.004419928 -0.009886679 -0.0032856471 0.0073967893 0.009099401 -0.00032292254 -0.009395701
-0.0070173177 0.0039385506 0.010099473 0.0039385506 -0.0070173177 -0.009395701 -0.00032292254 0.009099401
0.0073967893 -0.0032856471 -0.009886679 -0.004419928 0.0063514826 0.009291148 0.00093089347 -0.008436929
-0.007445408 0.0025374056 0.009272957 0.0046740165 -0.0054760375 -0.0087979995 -0.0014320157 0.0074837147
0.0071588997 -0.001776869 -0.008327908 -0.0046753427 0.00448646 0.007973238 0.0017760772 -0.006342746
-0.006573733 0.0010797643 0.0071539343 0.0044326275 -0.003480894 -0.0069084656 -0.0019393695 0.005127385
0.005760156 -0.0005028655 -0.0058690906 -0.0039859624 0.0025450916 0.005714218 0.0019266296 -0.0039438982
-0.004809429 7.721745e-05 0.0045886426 0.003398139 -0.0017413576 -0.0045021847 -0.0017671493 0.0028772317
0.0038182212 0.00019281391 -0.0034091244 -0.0027423806 0.0011033063 0.0033690734 0.0015064548 -0.0019824766
-0.0028736184 -0.00032520457 0.002397745 0.0020894227 -0.00063667144 -0.0023851497 -0.0011959124 0.0012829136
0.002041737 0.0003523952 -0.0015884967 -0.0014967817 0.00032498175 0.0015891093 0.00088285253 -0.0007739149
-0.0013617978 -0.00031221873 0.0009846365 0.001002185 -0.00013798085 -0.0009892905 -0.0006033179 0.000430788
0.00084599986 0.00023986968 -0.0005658423 -0.000621879 4.042813e-05 0.0005698164 0.00037855588 -0.0002181231
-0.00048416056 -0.00016246433 0.00029763125 0.000353255 6.6370916e-07 -0.00029940752 -0.00021525216 9.839381e-05
0.0002511815 9.6768556e-05 -0.00014063077 -0.00018031884 -1.1467185e-05 0.00014049241 0.00010858997 -3.8280526e-05
-0.000115182425 -4.9756563e-05 5.7922975e-05 8.020279e-05 9.64091e-06 -5.6763012e-05 -4.677107e-05 1.2122872e-05

septimbre_amt.cqt.filtfilt.fir f4 [1, 1, 33]
00000000: a96e e6a1 b072 f7ba 38a5 2522 a221 7d3b
00000010: bda0 9aa2 690b 07bc c50b 0323 86a3 823c
00000020: 5e6d 42a3 1beb eabc 7ce7 8023 44be 4f3d
00000030: 2fc5 9ba3 90bc c8bd b7b8 ad23 1ec3 a13e
00000040: 412e 003f 1ec3 a13e b7b8 ad23 90bc c8bd
00000050: 2fc5 9ba3 44be 4f3d 7ce7 8023 1beb eabc
00000060: 5e6d 42a3 86a3 823c c50b 0323 690b 07bc
00000070: bda0 9aa2 a221 7d3b 38a5 2522 b072 f7ba
00000080: a96e e6a1
-1.5614698e-18 -0.0018878784 2.2449136e-18 0.0038624783 -4.191197e-18 -0.0082424665 7.1040165e-18 0.015947115
-1.05399205e-17 -0.02867656 1.3975825e-17 0.05071856 -1.6888644e-17 -0.098015904 1.8834927e-17 0.31594175
0.5007058 0.31594175 1.8834927e-17 -0.098015904 -1.6888644e-17 0.05071856 1.3975825e-17 -0.02867656
-1.05399205e-17 0.015947115 7.1040165e-18 -0.0082424665 -4.191197e-18 0.0038624783 2.2449136e-18 -0.0018878784
-1.5614698e-18

septimbre_amt.note_branch.early_conv.0.conv.weight f4 [16, 8, 5, 5]
00000000: 36b2 19bd 059a bb3d f372 d4bd fd52 a33d
00000010: df77 0b3e b1a5 acbd 7792 fdbd b305 233e
00000020: e744 0bbe a0d7 15bd 02fb fcbc bf85 1b3d
00000030: 8a0c c8bd 7620 903d c828 bd3c a749 a23d
00000040: d59c 04bd fc42 66bd b54b e93d 16a2 1fbd
00000050: 628a ae3a 6253 b5bd 8dcf 0fbd 58aa 8dbd
00000060: dea2 933d 4240 b53c 7edb ccbd 3f3c e83c
00000070: d719 593c 4c99 0a3c 4dcc 963b e266 05be
00000080: 97c9 9fbd a9aa 05be 96bb 75be 0a71 bf3c
00000090: b38c 323d a616 0abe 3a30 e23c 6e4f 71be
000000a0: a634 503d 9955 51bd 7320 003c 7508 adbd
000000b0: b3ed 863d 6628 7c3e c6c9 5b3e 10c2 463e
000000c0: 8a15 ce3e 82df 933e 12de e3bd a95a 35be
000000d0: 206e 28be ebe4 5cbe a9f3 b6be 70bf 65be
000000e0: 72d7 0fbe f7e6 6cbe 98bc 14be 4454 2fbe
000000f0: e45e a23d baa9 893d 3091 783d 6abc dcbd
00000100: 05e4 89be e0c3 503e bade 1a3e b3b0 943e
00000110: 48a6 a63c bad2 543e 0f11 2d3e 4c23 8b3e
00000120: 7eb5 fc3d 34eb 283e 7bae 363c 0a13 39bd
00000130: 2694 39bd 85f2 e03d eec2 8dbc 7e19 12be
00000140: 54fc 86bc 19f5 203d bddc 0b3e 00d9 143e
00000150: 363c 7f3c a59e 84bd 3945 203e b9ba fabd
00000160: fc00 943d 0607 91bd c5a8 ecbb b6d3 18be
00000170: 1542 23bd 1d3d bc3d 1972 d43c 94cb 773d
00000180: b971 2bbc 0066 833d 280b 90bd ca63 4cbd
00000190: 3f7c ac3c 2e37 a53d fa3f b33d 124e 43bd
000001a0: 8ed4 d03b ce62 babc b2b0 f4bc a6a0 49bc
000001b0: 3631 0f3e 4d38 99bd 82a9 863d c51e bc3d
000001c0: 6e5f 6bbd 5608 51bd 72ec 1bbe d5b7 933d
000001d0: 84b0 83bd aead 1b3e 226a d3bc 58f2 fcba
000001e0: fa50 c73d c1e0 7ebd eb40 ad3c 4762 ba3c
000001f0: 688d ccbd 9429 c4bd 4cab bcbc d2e7 db3d
00000200: 85f5 2f3d 67f3 aabd b56d 363d 6efc d73c
00000210: c730 843d 4640 babd 7661 91bd 112e d13d
00000220: 80d4 7f3e f72b 47bd 817b eebd 72d3 f8bd
00000230: 9e7d 09bc 5cfb fa3c fab4 8dbd dcaa 013e
00000240: 761f d13c 3657 a7bd 42c3 77bc e542 9cbd
00000250: d180 f03c c173 423d 08a4 f83c 74b5 a63d
00000260: 73ec ddbc 6178 0fbd a0bb cabd 9bc0 383e
00000270: 19ce 5bbd 0d1c b0bd 8113 32bc 25c4 053e
00000280: cded f13c 454a 18be 33d8 6c3d 8872 173d
00000290: 81b1 aebd a87b c63d efcf 9c3c 6784 53b9
000002a0: 322a 593d eb35 6dbe 294b fbbd 9035 733d
000002b0: ac75 063e f53f 1dbe 00bf 13bb 4776 2abe
000002c0: 1910 08be 2428 143e ea48 8c3d 19d9 163e
000002d0: 01c4 9bbd 5695 bf3d 820e 1b3d 1367 88bb
000002e0: 0923 7bbc 24f7 45bd 0f57 ec3d a60b 373e
000002f0: 02fe f7bd 27af aeb9 a2c4 2d3d f7dd d5bd
00000300: 4bf6 233c 0276 cb3d bb39 05be c8e1 6dbc
00000310: 9215 483d f156 bd3d 45f5 50bd a345 f8bc
00000320: dd1d 1c3e 8f9f 33be 75d8 e13d 23d9 2c3e
00000330: e8af 68be 3cea 5abe f40e a53e 254f 72bc
00000340: 584c a3bd a564 c3bd e436 b13d e53f 453e
00000350: ef59 aa3e 7597 3abe 4576 43be 5347 15be
00000360: d22e 1b3e f11c a7bd 7129 763e d833 b3be
00000370: 7de2 b53e 9373 90be 824c 80be e879 8f3e
00000380: 2329 41be def7 b1be 4231 ffbd f37a 873e
00000390: 4f63 903e bb44 bfbd 2454 47bf 2700 23be
000003a0: e7ba 6b3e 6db7 763e 24a6 c33e 7c28 cdbe
000003b0: 7bc4 3fbf c2fa e1bd a50d 0c3f 592a e03e
000003c0: a76a 68bf babe c2be 1708 c03d a99d 473f
000003d0: 127b 9c3e c8e9 00bf bada 873d 6245 033f
000003e0: f686 873e 8aa7 f8bd a286 93be 9d62 863e
000003f0: 1396 ae3e 9ae0 bf3e 65a5 e0be dc49 06bf
-0.03752347 0.09160236 -0.10373487 0.07974813 0.13619946 -0.08430041 -0.123814516 0.15920143
-0.13600503 -0.03658259 -0.030881409 0.037969347 -0.09768017 0.070374414 0.023090735 0.07924204
-0.03237613 -0.056216225 0.11391393 -0.038972937 0.0013316388 -0.08853795 -0.035110045 -0.06917256
0.07208799 0.022125367 -0.10002802 0.02834904 0.01325079 0.0084594 0.0046019913 -0.13027528
-0.07802122 -0.13053383 -0.2399734 0.02336933 0.043591212 -0.13485202 0.027610887 -0.23565456
0.05083146 -0.051107023 0.0078202365 -0.08448879 0.06588306 0.24624786 0.21463689 0.19409966
0.40250808 0.2888146 -0.11126341 -0.17710365 -0.1644826 -0.215717 -0.35732773 -0.22436309
-0.1404703 -0.23134981 -0.14525068 -0.17121989 0.07928255 0.06721826 0.060685337 -0.10778125
-0.26931778 0.2038722 0.15124026 0.2904106 0.020342961 0.20783511 0.16901039 0.27175367
0.123393044 0.16495973 0.011149998 -0.045184173 -0.0453073 0.10983757 -0.017304864 -0.14267537
-0.016477741 0.039296243 0.13658424 0.14535904 0.01557832 -0.064755715 0.15651406 -0.12242646
0.0722675 -0.07081418 -0.0072222673 -0.14924511 -0.039857943 0.09191344 0.025933312 0.06049688
-0.010464125 0.06415939 -0.07033378 -0.049899854 0.021055339 0.08067165 0.08752437 -0.047681876
0.0063729947 -0.022752192 -0.029869411 -0.012306368 0.13983616 -0.07481442 0.065753 0.09185556
-0.057464056 -0.05103334 -0.15226915 0.072127976 -0.06430152 0.15202972 -0.025807444 -0.0019298298
0.09732242 -0.06222606 0.02114912 0.02275194 -0.099879086 -0.09578243 -0.0230309 0.107375756
0.042958755 -0.083472066 0.04453822 0.026365485 0.06454616 -0.090942904 -0.07098667 0.102138646
0.24983406 -0.048625913 -0.1164465 -0.12149705 -0.008391766 0.030637436 -0.06919284 0.12662834
0.025527697 -0.08170931 -0.015122237 -0.076299466 0.0293583 0.047473673 0.030351654 0.08140078
-0.027090287 -0.03502691 -0.09899068 0.18042223 -0.053663347 -0.085991 -0.010868908 0.13063104
0.029532338 -0.14872082 0.05782337 0.03697446 -0.0852995 0.09691554 0.01914212 -0.00020171852
0.053018756 -0.231651 -0.12270195 0.059377253 0.13130826 -0.15356429 -0.0022544265 -0.16646682
-0.13287391 0.14468437 0.06849845 0.14731254 -0.07605744 0.093546554 0.037855633 -0.004162678
-0.015328177 -0.048331395 0.115400426 0.17875537 -0.12108995 -0.00033318365 0.04242385 -0.10442727
0.010007451 0.099346176 -0.13010304 -0.0145191625 0.048848696 0.092450984 -0.051015157 -0.030306643
0.15245767 -0.17541336 0.11027614 0.16879706 -0.22723353 -0.21378416 0.3223797 -0.014789377
-0.07973546 -0.09540681 0.08653048 0.19262655 0.3327174 -0.18221839 -0.19088085 -0.1457799
0.1515458 -0.08159817 0.24039246 -0.3500049 0.3552436 -0.28213176 -0.2505837 0.28022695
-0.18863349 -0.3475942 -0.12460567 0.2646099 0.28200766 -0.09339281 -0.77862763 -0.15918027
0.23020516 0.24093409 0.38212693 -0.4006995 -0.7490918 -0.110341564 0.5470832 0.4378231
-0.9078774 -0.38036138 0.09376543 0.77974945 0.30562645 -0.5035672 0.06633516 0.51277745
0.26470155 -0.121413305 -0.28813654 0.2624711 0.34098873 0.37476045 -0.43876186 -0.5245645

septimbre_amt.note_branch.early_conv.1.weight f4 [8, 16, 25, 3]
00000000: 9a4f d0bc 8db7 d9bc f088 26bd 8afc 6bbd
00000010: aa4a 44bc 179e 85bc a28d 6fbd a507 4ebd
00000020: 8abb 11bd 4054 1fbd 2c70 85bc 5086 b0bb
00000030: a6ba 44bb e9a5 ceb9 462c 403d 6e8e 3dbd
00000040: ec2a 76bc d1fa e9bc 16b5 09bc 4aec 233c
00000050: 5373 453d 10cf 9cbc ba01 b8bb d457 9d3c
00000060: d96a be3c e833 dd3c ef2a 503c 963b f23c
00000070: 3be8 9f3b 1816 fa3c 9a37 263c 2d43 4b3c
00000080: bc55 3bb8 4b4f 993c 9bf9 2c3c 25d6 423c
00000090: 5ff1 853d c33f 4c3d bf33 123d 27cf 8f3c
000000a0: 5270 cb3c 983f 003d e62c 203d 2fac a83c
000000b0: 769c 60bc ffb8 61bc 957b f33b 4885 99bc
000000c0: 89ec dfbc e096 f5bc eed0 fcbc b9e1 5dbc
000000d0: bbe5 82bc 05cd 6ebc 94cb 8abd 0096 06bd
000000e0: 623c cdbb 8da4 39bc 423f 9cbc 9ed2 b33c
000000f0: 227b 173d 9716 1a3d 5a4b 563d fc40 a5bc
00000100: 3391 babb 2809 44bc 966c 3fbd fcb5 96bb
00000110: b9e6 4dbc 1f98 d2bc c664 82bc cce9 69bd
00000120: 0942 a63c d2de 143c 7918 c7bc 8e92 b73c
00000130: c193 10bd 4660 b3ba 272e 4cbd 8be2 19bd
00000140: 8e19 a9bc dd01 b3bb 5e5c 54bd 9016 9bbc
00000150: 8caa 71bc 6efc e4bc 6f59 44bd b404 0fbd
00000160: 5271 f739 9cbd a5bc f667 15ba a8ea a7bc
00000170: cba7 61bb acc9 283d c99a 343b a4eb 4dbc
00000180: d22a abbc ebe8 233b d396 d2bc 107f eabc
00000190: ec4e 0bbd 9a7f aabc e98d 3cbc df07 493b
000001a0: 5179 00bc 0870 423b 1538 94bc 7e5b f93c
000001b0: b57d 6c3b 5e78 2abc 488e d2ba 813f 69bc
000001c0: 7b81 b5bc 4494 59bd c9cb 9bbb fc8c 393c
000001d0: a238 d2bc 754d 5dbc fc19 f6bc f456 41bc
000001e0: bf77 7bbb 79bb d63b ae5d 8b3c 9b38 33bd
000001f0: a934 74bb 9cf1 143d accc cf3c 0463 09bc
00000200: 86db 323d aedf 2ebd e043 48bd df95 69bc
00000210: dc89 bc3a 32b2 053b ed68 abbc 8eb5 b2bc
00000220: c01e c03c 4c05 8b3c e3f6 983c 50ba 723c
00000230: 983d 4a3d 8c8a 083c 5e74 a73b 106c a13c
00000240: 263f 80bc 45f3 04bc d38c edbc f4c4 893d
00000250: e5d4 453d 9a9b 573d 167b 00bd 02cd b9bc
00000260: 6ed4 96bc f508 66bc 081b b3bc 902d 08bc
00000270: eb5b 0cbd 126f 0839 73a4 dcbc 3995 a73c
00000280: 0845 22bc ec25 dd3c 5c18 933a 29e1 3f3c
00000290: b6b2 20bc 6be9 333d 5fe8 3fbc 6fe8 c4bb
000002a0: 979a ffbc bf2b 9cbc 46ec d5bc fef7 95bd
000002b0: bf5c 51bd 6963 07bd 6a4f ad3b 45de 9b3c
000002c0: 6dee 283d b293 35bc 9125 473c 48d5 a73c
000002d0: aaf4 a0bd a361 85bd c36f 80bd d150 083c
000002e0: 3d09 ef3b 376a 8ebc 50d4 2f3c b177 f73a
000002f0: f4e0 86bc d0fb 2cbd 8928 95bd 0d53 8cbd
00000300: ec5f 86bd 815f 2abb 1f18 183b f21e d3bb
00000310: 22e2 6cbd d23a 23bc 063b 1d3b 8fab 39bb
00000320: 5b0a 7e3d 34e3 8cb9 e906 dfbc 7929 fabc
00000330: a546 8bbd 59bb 96bc 31ef f13b 1042 473c
00000340: 6783 973c 40d0 0d3d 8221 093c 0a05 e6bb
00000350: 0382 24bd e032 473d 6df4 d93c ab51 b9bc
00000360: 6841 7ebc 070b 38bb 848c 60bb d0c8 b13b
00000370: 3e86 2dbc 54ff f9bc b56f 5dbb 5134 cf3c
00000380: a2c9 873c 9591 64be e4d7 60be 3c09 57be
00000390: 5020 9fbd 7280 e0bd 9523 a8bd 7330 10bd
000003a0: 42a2 b1bc 2af9 25bd 1212 2fbc 99ee 4ebc
000003b0: 9cc2 8dbc 2eab 9d3d 3e61 153d 2a32 6e3d
000003c0: a9db 19bd def4 41bd 6eae 91bd 48a2 b6bb
000003d0: e419 8ebc 9199 8a3b 26bc b73b f931 a7b9
000003e0: 7408 1e3d 05e5 32bd 3aad 9fbb aef4 f2bc
000003f0: dc68 fdbc a5d2 2bbc c06d 78bd ff22 36bd
-0.025428582 -0.026576782 -0.040657938 -0.057613887 -0.011980692 -0.016310735 -0.05848468 -0.05030026
-0.03557924 -0.038898706 -0.01628884 -0.005387105 -0.0030018478 -0.00039414995 0.046917222 -0.04627841
-0.015024882 -0.028561981 -0.008404991 0.010005066 0.048205685 -0.019141704 -0.00561544 0.019206919
0.023244308 0.02700229 0.012705549 0.029569428 0.004879979 0.030528113 0.010145092 0.012406153
-4.466412e-05 0.018714568 0.010557557 0.011891876 0.065401785 0.049865495 0.03569388 0.017554833
0.024833832 0.031310648 0.03910532 0.020589916 -0.013709178 -0.013777017 0.0074305036 -0.018740311
-0.027334468 -0.02997917 -0.030861344 -0.013542586 -0.015978685 -0.014575248 -0.06777111 -0.032857895
-0.0062633017 -0.011330736 -0.019073132 0.021951016 0.036982663 0.0376192 0.052317955 -0.020172589
-0.0056935786 -0.011965074 -0.046734415 -0.004599331 -0.012567216 -0.025707303 -0.015917193 -0.05710773
0.02029516 0.009086328 -0.024303662 0.02240875 -0.03529716 -0.0013685308 -0.0498487 -0.037569564
-0.020642068 -0.0054628686 -0.0518459 -0.018931657 -0.014750134 -0.0279524 -0.047936853 -0.034916595
0.0004719594 -0.020232014 -0.00056993903 -0.020497635 -0.0034432288 0.041207954 0.002755808 -0.012568388
-0.020894442 0.0025010656 -0.025706684 -0.028625041 -0.034010813 -0.020812798 -0.011508443 0.0030674858
-0.007841424 0.0029668827 -0.018093148 0.030439135 0.003608567 -0.010404674 -0.0016064132 -0.014236332
-0.022156468 -0.053119913 -0.0047545177 0.011325117 -0.02566177 -0.013507237 -0.030041687 -0.011800516
-0.0038370935 0.00655311 0.017012443 -0.043755155 -0.0037262833 0.03636323 0.02536615 -0.008385424
0.043666385 -0.042693786 -0.048892856 -0.014256923 0.0014384347 0.0020400402 -0.020924056 -0.021815088
0.023452163 0.0169703 0.018672412 0.014814928 0.049375147 0.008333813 0.0051103076 0.019704849
-0.015655112 -0.008114641 -0.028997814 0.06727019 0.048298735 0.052638628 -0.031367384 -0.022680763
-0.018411841 -0.014040221 -0.021863475 -0.008311644 -0.034267347 0.00013011348 -0.026933884 0.020456897
-0.009904154 0.026995622 0.001122247 0.011711397 -0.009808233 0.043923777 -0.011713116 -0.0060091536
-0.031201644 -0.019063829 -0.02611364 -0.073226914 -0.05111384 -0.03305379 0.005289008 0.019026885
0.041243006 -0.011082577 0.012154953 0.020487443 -0.07859166 -0.06512763 -0.06271317 0.008320049
0.0072948025 -0.017384632 0.010731772 0.0018880275 -0.016464688 -0.042232335 -0.07283122 -0.06851778
-0.065612644 -0.0025996866 0.0023207737 -0.006442898 -0.057832845 -0.009962754 0.002399148 -0.0028331017
0.062021594 -0.0002687216 -0.027224975 -0.030537354 -0.06800584 -0.018399881 0.00738325 0.012161747
0.018495275 0.03462243 0.008369805 -0.0070196437 -0.04016305 0.048632503 0.02660581 -0.02262195
-0.015518524 -0.0028082745 -0.0034263441 0.00542555 -0.010591088 -0.030517258 -0.0033788506 0.025293501
0.016575638 -0.2232116 -0.21957356 -0.20999616 -0.07769835 -0.10961999 -0.08209912 -0.035202455
-0.021683816 -0.040520824 -0.010685461 -0.012630128 -0.017304711 0.076986656 0.03646969 0.05815331
-0.037563 -0.047352664 -0.07113348 -0.0055735447 -0.01734633 0.0042297323 0.005607146 -0.00031889955
0.03858228 -0.04367544 -0.004872945 -0.029657688 -0.03093379 -0.010487233 -0.06065154 -0.04446697

septimbre_amt.note_branch.early_conv.1.bias f4 [8]
00000000: 5a46 213f 8d32 dc3f eb09 4f3f 264b 4b3f
00000010: df98 923e b29e 0340 77a3 8dbe a4c3 a33f
0.6299797 1.7202927 0.8087451 0.7941154 0.28632256 2.056561 -0.27663776 1.279408

septimbre_amt.note_branch.neck.conv.weight f4 [16, 8, 5, 5]
00000000: 4f0b 113e 9433 03bd a143 9f3d e5e3 e7bb
00000010: dcbc ab3d 6ebd f8bc ce6c b73c 6288 093e
00000020: 9bf0 19bc c61e e43d 8bea 1d3e a67b 473e
00000030: 0c05 1a3d c1ad 033e 296f 9f3e e05a 1f3e
00000040: a913 623d c9de 3c3e b363 b93c f1c8 443e
00000050: e762 333d 6def b1bd 105e d4bd bbd4 4e3d
00000060: 3709 05be 0c95 1b3d 6ea0 09be 90af 0d3d
00000070: 8f11 93bd 61dc 7d3d 280e c13d 0ed3 b53d
00000080: d3da febc d3a9 dcba 8580 01bc 73ec 703c
00000090: 6b88 e33c d273 383c 63c3 ca3d fae3 9bbd
000000a0: dc58 6fbb 70c1 d2bc 3c8c 9e3b de2d ce3d
000000b0: 3ed5 ebbd c4b3 cc3d c1ac 813d 4422 f5bb
000000c0: eee2 bb3c 0ec6 ff3c 562a 943d 4521 d8ba
000000d0: 6083 e1bd e234 12bc 3bf3 283d c80a 3ebd
000000e0: befb 383d c348 823c 1b7b 8abd b003 babd
000000f0: 8792 febd 8627 a2bd cdc1 c13d 9f13 093d
00000100: 67d6 b73d 9902 18be 9670 55bc fb95 d53b
00000110: 3c27 893d a43e 113e 4e4a 2cbe 96cc febd
00000120: abad 5a3d 60fe 41bd eef7 083d 4104 a93c
00000130: 640a 7e3d 3e0a ca3d 6ef3 1abe 2ff3 2a3d
00000140: cda8 44bd 5304 2039 e657 59bd 52f2 a0bd
00000150: 1900 c33c d576 46bc 0073 70bd 5709 d63d
00000160: f63e c13d 04a0 503c cc8a 6a3c 8646 2abd
00000170: 7c34 b13d 4ef1 a2bd 6a8b d93d c8ba 7cbd
00000180: 45ff 05bd e269 c4bd ec5b a7bd bc19 e23d
00000190: 9f61 b8bd 9f12 9cbb 88d1 90bd c72f 9e3c
000001a0: 3695 4abd fd75 87bc 34d4 c5bd a19d a33c
000001b0: 0f1d 7abd cfb9 173c 7c80 7a3d bc2c 853b
000001c0: 9e60 e43c 475e 4c3d f24a bfbc a126 85ba
000001d0: 5a60 cd3d b764 913d b753 b43d cce3 dd3c
000001e0: 8804 e93d a280 1b3e 6f56 353e 9d7a 243e
000001f0: 2add ce3d 73b2 36bd 6c3c f23c 8129 54bd
00000200: 9932 30bb 9ae5 e4bd 6a81 0ebe 7d16 c5bd
00000210: 50e9 443c f895 be3c 7865 bdbd 6027 1a3d
00000220: 2a7a adbd 0543 6b3c 8a78 e03d 0419 033e
00000230: b4e7 b3bc e5b1 1bbd b371 ae3d eb10 89bd
00000240: 71fd a93c 248e 083d f382 8a3d a81d 61bd
00000250: edfa 4fbd 6241 f33c 3b02 293d 2d55 043e
00000260: e4ab cc3d edb8 7fbd 88bf 56bd d3d2 cbbd
00000270: 8220 a93c e51d f73c 29f6 f2bd 385c 89bc
00000280: 6bdf 3f3d b982 45bd adcb dd3d ee70 a8bd
00000290: 2c23 803c a312 263d c449 b3bd c783 113d
000002a0: 2009 14be 73bc cabd 7497 973a dda6 d7bd
000002b0: 1359 a33d 7bc0 a03d 9a9f 8b3d 5f75 a93b
000002c0: 857d b63d b8c8 0c3e eb47 a33b 4a4b abbd
000002d0: 4caf 603d 3115 0c3d b552 71bc 30eb f53c
000002e0: 49aa 643a ef2c 993d 43b0 e8bc 4f96 8bbd
000002f0: 00b6 73bd 802f b33d 3594 913d 5c6b d0bd
00000300: 5086 94bd 2684 b23b 3026 7a3d af41 1ebd
00000310: 8641 aebd f4d6 2d3d bcb6 523b 88ab b03c
00000320: 97b4 0c3c 9022 333e a54a a0bd 17c4 0fbe
00000330: fc32 923c 4a62 e3bd 66d8 75bd b295 e0bd
00000340: bb34 1dbc 2607 c03d e10d 0a3e e2b7 003e
00000350: b928 653c f112 acbd e9fc 2abc 3a7a 97bc
00000360: 6e3a 56bd 63d1 1abe d5dc 7abd 9cfd 693d
00000370: b372 833d e605 c0bb f9ba 9ebc f7d6 84bd
00000380: 42ae 1ebe 46a4 363e d3c1 f9bc eba5 aebd
00000390: 02c8 9d3d 300a 473e 1c87 293e 273b fd3c
000003a0: 330b 4ebd c8ca bbbe 282b a3be 7376 f5bd
000003b0: aeb8 5239 e487 a6bd 6d15 e53d 8c3e 1dbe
000003c0: 3f4e b9bd 5231 b73c 5fed f13c adf4 bf3d
000003d0: a9f5 05be 176c 20be 3627 9f3d 87cf 4ebc
000003e0: e936 f63c 6228 10be 2e7f 3cbd 673a a7bc
000003f0: 3ac4 263e c057 84bc 7030 043e 9b69 2d3d
0.1416447 -0.03203161 0.07776571 -0.0070767277 0.083856314 -0.030363765 0.02239075 0.13430932
-0.009395744 0.11138682 0.15421502 0.19480762 0.03760247 0.1285925 0.31139496 0.1556201
0.05519453 0.18444361 0.022630548 0.19217278 0.043795493 -0.08688245 -0.103695035 0.050495844
-0.12991796 0.03798394 -0.13440105 0.034591258 -0.071810834 0.061977748 0.09426528 0.08878146
-0.031110203 -0.001683528 -0.007904177 0.014704811 0.02777501 0.011258082 0.09900548 -0.076118425
-0.003652147 -0.025727004 0.0048384946 0.10067342 -0.11515282 0.09995225 0.06331778 -0.0074808914
0.022935357 0.03122237 0.072346374 -0.0016489407 -0.11011386 -0.008923741 0.041247588 -0.046397
0.045161955 0.015903836 -0.06761762 -0.090827346 -0.124302916 -0.07917695 0.09460793 0.033465978
0.08976441 -0.14844741 -0.013027331 0.006518123 0.066969365 0.14184052 -0.1682522 -0.124413654
0.05338828 -0.04736173 0.03343957 0.020631911 0.062021628 0.09865235 -0.15131924 0.041735824
-0.048012543 0.000152604 -0.053062342 -0.07858719 0.023803758 -0.012113293 -0.058703423 0.10451
0.09435837 0.012733463 0.014315318 -0.041571163 0.08652589 -0.079561815 0.10622294 -0.061701566
-0.032714147 -0.09590508 -0.081718296 0.11040065 -0.09002995 -0.004762962 -0.07071215 0.019309891
-0.049458705 -0.016535753 -0.09659615 0.019972624 -0.06106287 0.009260609 0.06115769 0.0040641706
0.027878102 0.049894597 -0.023351166 -0.0010158607 0.10028143 0.07099288 0.0880503 0.027086161
0.113778174 0.15185788 0.17708753 0.16062398 0.101007774 -0.044603776 0.029569827 -0.051797394
-0.0026885627 -0.111766055 -0.13916555 -0.0962343 0.012018517 0.02326487 -0.09247869 0.037635207
-0.084705666 0.01435924 0.10960491 0.12802511 -0.02196107 -0.03801145 0.0851778 -0.0669268
0.020750733 0.03333868 0.06763258 -0.054959923 -0.05077641 0.029694263 0.041261893 0.12923117
0.09993723 -0.06243222 -0.052428752 -0.09952321 0.020645384 0.030165622 -0.118633576 -0.016767606
0.046843927 -0.04822037 0.10829864 -0.08224665 0.015641771 0.040545117 -0.08754304 0.035526063
-0.14456606 -0.09899225 0.0011565522 -0.105298735 0.07975974 0.07849213 0.06817551 0.0051714624
0.0891066 0.13748443 0.0049829385 -0.083639696 0.054854676 0.034199897 -0.014729192 0.030019373
0.0008722884 0.074792735 -0.02840436 -0.068157785 -0.05949974 0.08749294 0.071083464 -0.10176727
-0.072521806 0.005447882 0.061071575 -0.03863686 -0.08508591 0.042441323 0.0032152375 0.021566167
0.008587978 0.17493653 -0.07826737 -0.14039646 0.017846577 -0.111027315 -0.060020827 -0.10966052
-0.009595091 0.093763635 0.13481857 0.12570146 0.01398676 -0.0840205 -0.010436275 -0.0184909
-0.052301817 -0.15118937 -0.061245758 0.057126626 0.064183615 -0.005860078 -0.019376265 -0.06486314
-0.15496162 0.17836103 -0.03048793 -0.0852774 0.07704164 0.1943748 0.16555446 0.030911995
-0.05030365 -0.36678147 -0.31868863 -0.11985483 0.00020095959 -0.08131388 0.11185727 -0.15355891
-0.090481274 0.022362385 0.029532133 0.0937284 -0.13081993 -0.15666233 0.07771151 -0.012622721
0.03005548 -0.14077905 -0.046019726 -0.02041359 0.16285792 -0.016155124 0.12909102 0.04233704

septimbre_amt.note_branch.conv_yn.0.weight f4 [1, 16, 5, 5]
00000000: ca72 c8bd c26e f4bc fb30 3cbb 0c7d d23c
00000010: a899 2fbb 4afb 50be c754 1fbe 9c60 20be
00000020: fed9 35be b0f2 96be b98c 1fbe e736 77bd
00000030: 190c b6bd 26fb c1bd 3eab 2dbe 56b7 98bd
00000040: 9fa5 c13c 02ba 863a d055 e93c 0eb2 623d
00000050: 0a33 01bd 529a 75bd 4660 e4bc 8f3c 563c
00000060: 0def 893b a74c 41bd d31f 2abc dded cbbc
00000070: 0add a5bb 6454 84bd 3a58 c1bd c0b8 69bd
00000080: a0e6 4ebd 619d 2abd 2e49 fcbd b6e1 043d
00000090: e7e5 883b 51a2 27bd 016f 163b 6cc2 d6bd
000000a0: 0ca5 063e 334a 093d fbee 2a3d 7806 563d
000000b0: bf36 923d 1690 653d 3ad0 b23c 8d3a 8bbb
000000c0: e2c0 2abc 0a0d d03d 2bdd 11bc d07a aabb
000000d0: 1df7 1f3c f145 9dbc 021b 8abd 38d1 babd
000000e0: 056f 3cbe accb ddbd 6a4d 92bd 9256 2dbe
000000f0: 4925 3abd 2a8d 3abe 2267 2cbe f19d 7fbd
00000100: 99c6 06be aabc 9ebd d7e1 f0bc 6f82 acbd
00000110: 5623 03bd 6d5a c0bd 7cf9 1c3d 1091 d03a
00000120: 4876 d2bc 6e3b 463c 484a e13c 6cb6 5fbd
00000130: af63 afbd 4a8a 2fbc 9511 91bd 671a d2bc
00000140: 6082 98bc 50ec 5e3c d282 d7bd f311 34bd
00000150: 3c35 19be 650c e1bd 4e6c 10bd 690d 87bd
00000160: 112f c7bd af17 29be 8fdf 85bd 77c2 95bc
00000170: 4379 81bd 7e12 a3bd 47e6 09be 72d7 e6bd
00000180: c1a7 47bd c6da 5bbd 115e 4abd f539 9bbd
00000190: 8482 49bd 7394 b2bc 0864 cbbc a862 aabc
000001a0: 931e 0dbd 17fc 9fbd ca3b 52bd fb5d bebc
000001b0: 617e c0bd fef9 0abe 9f7d 29be bffb 20bd
000001c0: d66a e4bc a733 debd 61ab fbbd 2493 56bd
000001d0: 5cab bebb 4f61 d33b 965d d43b 25f3 c4bd
000001e0: 601d 2bbe 4018 72bd 8bb4 a8bd e198 a7bd
000001f0: c010 1dbe e36b 753b db23 3bbd 93ec 82bd
00000200: 2e0a a3bd b687 ddbd 0a52 2ebd 7675 35bd
00000210: d060 fdbd 395d 81bd d4f9 26be 4900 9bbd
00000220: 3544 7fbd d6c7 19bd 6a92 2bbd 06fe 34bc
00000230: 80a1 873c dfd7 e13b 1cf0 33bd 59d5 543c
00000240: 9ec6 d23c 01f2 303b 0dcd bebc 7508 6dbd
00000250: 8b48 bfbd d099 28bd c8f0 c7bd e6f3 1ebd
00000260: c12a 9ebc 353d 2fbd 6d70 82bd c475 ab3c
00000270: 4a8d c73c 33d1 2e3d 2cae 203d df73 35bc
00000280: 69eb 103d 7f6e fdbc 1afb 233d b889 c83c
00000290: 2520 77bc 7ad8 683d 3b0b 2a3d 4859 073d
000002a0: 9d75 4a3d 2195 a23d dd3d a43c 5bcb f93c
000002b0: 6d94 99bc d835 ba3b 90cb c8bc b269 923c
000002c0: c014 f93c 756c b93c 8e67 2c3d 63f0 133d
000002d0: 1e63 0f3d 0f80 293d 4098 e33c 2e47 cc3c
000002e0: 5da6 863c c8c7 2f3d b572 253d 3d22 a13c
000002f0: b501 913d bacb 913d 0db0 4cbd 8ed9 21bd
00000300: 8640 893b 811c dcbc c3dc fdbd be63 e2bc
00000310: 50e0 19ba 0319 12bd 5830 2bbc 2993 acbc
00000320: acd5 85bc 14a0 f639 5bba 00bd 95fb 9a3c
00000330: 5be8 49bd d3cc 24bb 3d88 f2bb 841f 92bc
00000340: 104d ecbc 9f43 9ebd d451 99bd 70ac c2bd
00000350: bd69 d1bd ba46 97bd 784d 38be 2a9c dbbd
00000360: 5047 7ebc 6a5d 873a a648 e73c 2f67 0f3d
00000370: 3c8f 57bb 1380 46bd bfd4 063c 5fcd 25bc
00000380: 605f 7cbd e17a 80bd 07ac 9cbb 960d 94bc
00000390: d9b0 b839 96e2 853d e0c8 20bd 6dc1 593c
000003a0: 2f8a cf3c bbaf 743d 6a80 b33d 4785 8dbd
000003b0: 2de4 82bd 259f a6bd 34af 74bd 8263 e9bc
000003c0: c306 1cbd 11cc 11bd a07b 92bd 8814 1fbd
000003d0: acf3 5fbd e357 273d c067 213d 2ed9 aab9
000003e0: 7642 a5bc 4475 a93b 01d7 69bd bcc2 893b
000003f0: 80d5 b43a 136f 1ebc c9c4 883c 8d9e 7abc
-0.09787519 -0.02983797 -0.0028715718 0.025694393 -0.0026794467 -0.20408359 -0.15559684 -0.15661854
-0.17758939 -0.2948203 -0.15581025 -0.060355093 -0.08889026 -0.09471731 -0.16959855 -0.074568436
0.023638545 0.0010278823 0.028483301 0.055345587 -0.031542815 -0.059961624 -0.027877938 0.013075962
0.0042094053 -0.047192242 -0.010383564 -0.024893695 -0.0050617503 -0.06461409 -0.09440656 -0.057060957
-0.05051291 -0.041653994 -0.123186454 0.032441817 0.004177797 -0.04092628 0.0022954347 -0.10486302
0.13148898 0.033518028 0.041731816 0.052252263 0.07139348 0.056045614 0.021827806 -0.004248923
-0.010421963 0.10158737 -0.008902828 -0.0052026287 0.009763506 -0.01919839 -0.067434326 -0.091219366
-0.18401726 -0.10829863 -0.07143672 -0.16927555 -0.045445714 -0.18217912 -0.16836217 -0.062406484
-0.13161696 -0.077508286 -0.029404564 -0.08423316 -0.03201612 -0.09392247 0.038323864 0.0015912373
-0.025691167 0.01209913 0.02750124 -0.05461733 -0.08563935 -0.010714123 -0.07083432 -0.025647355
-0.018616855 0.013606146 -0.10522999 -0.04396243 -0.14961714 -0.10988692 -0.035259537 -0.06594355
-0.09725774 -0.16512941 -0.06536781 -0.018281205 -0.06321957 -0.079625115 -0.1346675 -0.11271562
-0.048743967 -0.053675435 -0.049406115 -0.07579414 -0.049196735 -0.021799302 -0.024827972 -0.020798996
-0.034452986 -0.07811754 -0.05132655 -0.023238173 -0.09399105 -0.13571927 -0.16551827 -0.039302584
-0.027882975 -0.10849696 -0.12288547 -0.052386418 -0.0058187675 0.006450809 0.006480883 -0.09616689
-0.16710424 -0.059105158 -0.08237561 -0.08183456 -0.15338421 0.0037448339 -0.04568849 -0.06392779
-0.07960926 -0.108169004 -0.042558707 -0.044301473 -0.12371981 -0.06316609 -0.1630624 -0.07568414
-0.062320907 -0.037544094 -0.04188768 -0.011046892 0.016556501 0.006892189 -0.043930158 0.012990319
0.025729474 0.0026999714 -0.023291135 -0.057869393 -0.09340008 -0.041162312 -0.09762722 -0.03880682
-0.019307496 -0.04278298 -0.063691 0.020930178 0.024359364 0.042679977 0.039228603 -0.011074989
0.035380755 -0.030936478 0.04003439 0.024479732 -0.015083347 0.056847073 0.041514616 0.03304413
0.04942857 0.079386 0.02004903 0.030492475 -0.018747533 0.005682688 -0.024511129 0.017872665
0.030405402 0.022634724 0.042090945 0.036117923 0.035006635 0.04138189 0.02778256 0.024936285
0.01643675 0.042915136 0.040392596 0.019669646 0.07080404 0.07118936 -0.049972583 -0.039514117
0.0041886 -0.02686906 -0.123956226 -0.027635451 -0.0005869912 -0.035668384 -0.010448538 -0.021066265
-0.016337238 0.00047040044 -0.031427722 0.018918792 -0.049293857 -0.0025146499 -0.007401495 -0.017837293
-0.02884534 -0.077277415 -0.074863106 -0.09505546 -0.10225246 -0.07386537 -0.17998302 -0.10723145
-0.015519932 0.0010327522 0.028232884 0.035010513 -0.003289177 -0.048461985 0.008229434 -0.010119765
-0.061614394 -0.06273437 -0.0047812494 -0.018072885 0.00035226977 0.065373585 -0.03925407 0.013290745
0.025334446 0.059737902 0.087647274 -0.06910186 -0.06391177 -0.08135823 -0.0597374 -0.028489832
-0.038092386 -0.035595004 -0.07152486 -0.03883794 -0.054675743 0.0408553 0.039405584 -0.00032586738
-0.020173293 0.00517145 -0.05708981 0.0042041223 0.0013796538 -0.009670037 0.016695397 -0.0152965905

septimbre_amt.note_branch.conv_yo1.conv.weight f4 [7, 16, 7, 3]
00000000: 4071 fb3c e630 c33d 310f 003e ca3c 263c
00000010: 7e10 023e 604f b13c 0b98 40bc b7d5 e1bc
00000020: 1d30 c23c c5ed 08bd 44f3 41bc 120a 8f3c
00000030: bd1f 743c 6bed e23c 70a1 a3bd 591b 5c3c
00000040: 34d0 bfbd 65ed 973b 5aff 553b b555 793d
00000050: b43d a53d f470 b93d 2601 503d 21cc 1a3e
00000060: b17b 11be 0071 373c b527 623e 424b 9d3b
00000070: 4352 2d3d 3be3 013e 006a 4abc fce0 303c
00000080: 638a f93d 8bd9 12bd 7033 57bd 6a00 df3d
00000090: 26f2 df3d eb47 9f3c 425f 883d 7f3b 93bd
000000a0: e718 5e3d dbd3 003e 53a4 36be 83c6 683b
000000b0: ad30 0a3e 6625 d5bc 8b99 e9bd ff71 553e
000000c0: 845b 06be 76c4 bfbd a498 563e 98d6 9bbd
000000d0: 972a 0dbe fa9d 443e a909 50be b087 0dbe
000000e0: 9e6c 413e 8330 86bd b85c fabd ac67 b93d
000000f0: 69b2 4bbe 93dd 1ebd aca5 003e 8d9c 57be
00000100: fd26 973d d3fb be3d 5cda 32be 4238 37bc
00000110: 80d1 b33e dd4f 71be 7895 28be 96da 903e
00000120: f0a0 16be 0da1 b5bd 8af4 fe3d 6eea 30be
00000130: ad40 343d eb40 cf3e 3c4a cebd 8efc 863c
00000140: 5e03 c93e 85c9 08be 5aab 6e3d dc77 623e
00000150: 2444 09bc 8f20 cf3c 30ee 1a3d a3b2 8dbd
00000160: 85de 1cbc a208 503d ae34 8abd 031c f5bd
00000170: 8f80 873d db73 c1bd 0944 063c 3c8d e33c
00000180: 664c 4fbd e07b 04be fc3a 7e3c cc11 0f3d
00000190: fcc6 fabc d534 2c3e 949b c13d b271 a2bd
000001a0: cce2 5a3c edd0 b53d dc85 67b9 24f5 073d
000001b0: 7801 43bd 6700 84bd e1f9 0c3e 1aca 0cbd
000001c0: a65a b53c 9e13 183e 4983 dd3c 220f ab3d
000001d0: 6409 e63c dc4e 04be ce01 65bd b7a0 e83b
000001e0: a603 69be 0b79 893d b4c1 6c3d 0cbb 45be
000001f0: a06f a23d b8f9 643d e9ee 123e 7399 763d
00000200: 51fd 14be cfbc 933e 39e5 8b3d 70b2 35be
00000210: a66a 193e cd75 683c 7f52 d1bd 986c 103d
00000220: 0349 103e 9b35 94bd bba3 513d d1da 9b3d
00000230: 046a 24be a397 e73d 997c 513d e7ab 27bd
00000240: d6e2 013d e891 b73d 410b a6bd dfca 5cbd
00000250: 8834 adbb d39f 5dbb 26e2 2dbd 3d9a 4e3a
00000260: 6d1a e1b9 87c6 65bd 1cd7 c43c 7ab9 4b3d
00000270: 851f 8c3d 7b34 3fbd e68f 9fbd a781 f43d
00000280: 9e4d ddbc 527d b7bb d33c ad3d 893a 9dbc
00000290: 59fe e83a d944 1a3e c0e7 13bd bd4e 86bc
000002a0: f957 493e f113 99bd be14 94bd 3cf8 463e
000002b0: ddd7 87bd 5d3c 34bd d91b c13d afb0 d3bb
000002c0: 6b64 52be 01d2 093d a5ea 60bd 87aa 4abd
000002d0: 61c2 12be e360 09bd b56d 213d 22e3 cc3c
000002e0: 7696 26bd 21b0 a03d 6c81 a7bd b664 6ebd
000002f0: 09f8 0d3e e5de 11be 3348 eb3d 1451 f63c
00000300: 5239 0dbe a1e5 913d 0478 873c 82d8 74bd
00000310: d460 8a3d 388d d6bd 5701 90bc f2b5 e63c
00000320: 9b79 42bc e084 17be ca29 183d 0cc8 463d
00000330: 3b8e c3bd f3bc ac3d 511f 37bd 3554 533c
00000340: 594d 373c 4246 86bd 1d29 e43c ac17 c93a
00000350: dc5a 3d3d edbb adbd 64ed 40bd 39bd 5d3d
00000360: e1a1 f0bd f207 debd 7c69 3b3e 16a5 4a3d
00000370: d0ea 5cbd e9d7 803d 33f1 02be 835e 7fbd
00000380: e088 f03d edf3 69be 6005 87bc bb86 603e
00000390: ee85 70bd ab46 b7bb 60f3 ee3d badd 223e
000003a0: 9fea 2ebd 6495 71bd 372f 42be 331f 7bbd
000003b0: c081 f1bd 1134 54be 972e b1bd 02ab 9bbd
000003c0: 1728 42be 8e91 1a3d cd6e 8bbc a327 e0bd
000003d0: 4f8f 1d3d 0083 3ebe 983b 803c 53db 6cbd
000003e0: 2132 203d 6edd d53d e7f8 f5bd a490 adbc
000003f0: 976e edbc acc4 a13a fcee 99bd ec14 c33c
0.03069365 0.09530811 0.12505795 0.010146329 0.12701604 0.021644294 -0.011755 -0.027567727
0.023704583 -0.03342988 -0.011837784 0.017460857 0.014900145 0.0277011 -0.07989776 0.013434255
-0.093658835 0.004636454 0.0032653422 0.060872752 0.080684096 0.09054747 0.050782345 0.15116931
-0.14207341 0.011196375 0.2208546 0.004800231 0.04231478 0.12684338 -0.012354374 0.010795828
0.12184598 -0.035851996 -0.05253929 0.10888751 0.10934858 0.019443473 0.06658794 -0.07189082
0.054222967 0.12580816 -0.17836122 0.0035518713 0.13495131 -0.02601881 -0.11406239 0.20844267
-0.13120848 -0.09363644 0.20956665 -0.0760929 -0.13785778 0.19200888 -0.20316185 -0.13821292
0.1888909 -0.065522216 -0.12224716 0.09052977 -0.19892277 -0.03878553 0.12563199 -0.21055813
0.07380483 0.093253754 -0.1746611 -0.0111828465 0.35120773 -0.23565622 -0.16463268 0.28291768
-0.1470983 -0.088686086 0.12448986 -0.17276928 0.044006992 0.40479216 -0.10072753 0.01647785
0.3926038 -0.13358124 0.058268882 0.22116035 -0.008378062 0.02528408 0.03782481 -0.06918838
-0.009574537 0.050789483 -0.06748329 -0.119682334 0.066163175 -0.09445926 0.008194932 0.027777307
-0.05060997 -0.1293788 0.015516993 0.03492908 -0.030612461 0.16817029 0.09453502 -0.07931842
0.013359737 0.0887774 -0.00022079743 0.03319277 -0.047608823 -0.06445389 0.13767196 -0.034372427
0.022137951 0.14851233 0.02704014 0.08352496 0.02808065 -0.12920707 -0.055909924 0.007099237
-0.22755298 0.0671254 0.057801917 -0.19309634 0.07931447 0.055902213 0.1434895 0.060204934
-0.14549758 0.28854987 0.0683083 -0.1774385 0.1498209 0.014188242 -0.10220813 0.035259813
0.14090352 -0.07236787 0.051181536 0.07610095 -0.16056067 0.11308219 0.051144216 -0.040935423
0.03171047 0.08963376 -0.08107615 -0.05390441 -0.005285803 -0.0033817186 -0.042452 0.00078812597
-0.00042935033 -0.056097534 0.024028353 0.04973743 0.068419494 -0.04668091 -0.07791118 0.11938792
-0.02701455 -0.005599656 0.08458867 -0.01919295 0.0017775997 0.15065326 -0.036109686 -0.016394967
0.19662465 -0.07474507 -0.07230519 0.19430631 -0.066329695 -0.04400288 0.0942914 -0.0064602713
-0.20546119 0.03364754 -0.054911274 -0.049479034 -0.14331962 -0.033539664 0.039411265 0.02501065
-0.040670834 0.07846094 -0.08178982 -0.058201514 0.13864149 -0.14245184 0.1148838 0.030067958
-0.13791397 0.07123876 0.01653672 -0.05977679 0.0675675 -0.10476154 -0.017578764 0.02816293
-0.011869813 -0.14796782 0.03714923 0.048530623 -0.09548613 0.08434477 -0.0447076 0.0128984945
0.011187875 -0.06556369 0.027851636 0.0015342138 0.04622923 -0.084831096 -0.047101393 0.054135535
-0.11749626 -0.10841359 0.18301958 0.049473844 -0.053934872 0.062911816 -0.12787323 -0.062345993
0.11744857 -0.22846957 -0.016482055 0.21926396 -0.058721475 -0.005593141 0.11667514 0.15904894
-0.04270422 -0.05898036 -0.18963324 -0.06130905 -0.11792326 -0.20722987 -0.086514644 -0.076009765
-0.18960606 0.037736468 -0.017020607 -0.1094506 0.038466748 -0.1860466 0.015653417 -0.05782635
0.039110307 0.10442625 -0.12010365 -0.021187134 -0.028983397 0.0012341938 -0.07516286 0.023813687

septimbre_amt.note_branch.conv_yo2.0.weight f4 [1, 8, 3, 5]
00000000: 6c4a cf3d f4df bcbd 4d7f ccbb be00 92bd
00000010: 1860 61be ee68 cfbe 05cb 87be acae 83bd
00000020: ced1 e6ba 7dbe 833e 7a9e 9a3d 420e fe3c
00000030: 55bd c5bc c711 95bd 2863 98be fe57 25bd
00000040: 797b 5fbe 95fd 63bd a27b e8bd cde7 d8bd
00000050: 5eb6 d03d a5e6 39be b177 493d db91 22be
00000060: ac7c a0be 7138 c0bd fd2d 8bbe d5cb 78be
00000070: 57f0 dcbd ff2f d5bd 0ed1 26bd 1a32 8bbe
00000080: ca4a 6fbe dfd7 da3d a66c e13c d105 5dbe
00000090: bab1 81be de0b 85be 2686 90be c835 9abe
000000a0: f1ae 353d 464e 08be efdd 1dbe 5872 e93c
000000b0: d9d5 843d 3257 cdbd b700 2fbe 7ff6 0fbe
000000c0: ee22 47be fbae 80be b36a 2cbe a687 2cbe
000000d0: cec4 05be b881 2dbe 74c2 8dbe 1698 1a3d
000000e0: 552c b9bd 4598 85bc 6f89 7a3d d01a b13d
000000f0: fafe 01be 3a1e 12be 1e34 d7bd 915a 67be
00000100: b1ff 39bf 99b9 6ebd 88fb 2fbe 345f 0b3c
00000110: 90a4 b8bd 5de3 d6bd f712 ddbd 3b65 9abd
00000120: 6a7e cbbc 799f debd 1eab 20be 11e1 a0bd
00000130: 5b10 17be aad3 86bd f405 c83d e9e9 473e
00000140: b960 d4bd 17ea 1abe b6f3 28be 5aff 0bbe
00000150: 4429 ccbd 8ce8 b8bc 23e3 b8bd 9482 8fbd
00000160: b62b 5bbd 69fd f0bc 92ae 90bd 82e0 11bd
00000170: fcff b3bd 6f27 24be f5e5 c4be 4593 9fbe
00000180: 3e21 a0be 936a 76be b6d8 63bd 5c02 88bd
00000190: f554 4dbe 14ab c4b8 f595 a5bd 92a0 043d
000001a0: d07e 92bd 92c3 20be 92ba b0bd 4f91 acbe
000001b0: 89fc 5bbe eb65 32be 0266 0cbe 981b 1ebd
000001c0: 6abe bfbe 5ab0 58be 8dd5 3b3c 691a 9fbd
000001d0: 76fc 64bd 2108 99be 0801 73be e30a 7bbe
0.10121617 -0.09222403 -0.0062407614 -0.07129048 -0.22009313 -0.40509742 -0.2652208 -0.064298004
-0.0017610134 0.2573127 0.07549758 0.031012658 -0.024138132 -0.072787814 -0.2976315 -0.04036712
-0.21824445 -0.055661757 -0.11351706 -0.105910875 0.10191034 -0.1815439 0.049186412 -0.15875952
-0.31345117 -0.09385765 -0.27183524 -0.24296506 -0.10788029 -0.10409545 -0.040726714 -0.27186662
-0.23368374 0.106857054 0.027517628 -0.2158425 -0.25330907 -0.25985616 -0.28227347 -0.30119157
0.04435629 -0.13311109 -0.15416692 0.028496906 0.06486101 -0.10026397 -0.17090116 -0.14058875
-0.19446918 -0.251335 -0.16837578 -0.16848621 -0.13063356 -0.16944015 -0.27687418 0.037742697
-0.09041659 -0.01630796 0.061166223 0.08647692 -0.12694922 -0.14269343 -0.105079874 -0.22593142
-0.7265578 -0.05828247 -0.17185795 0.008506585 -0.09015763 -0.10492585 -0.10794633 -0.075388394
-0.024840552 -0.10870261 -0.15690276 -0.07855428 -0.14752333 -0.065833405 0.097667605 0.19522823
-0.10370011 -0.1512836 -0.16499218 -0.13671628 -0.09968808 -0.022571824 -0.09027698 -0.07007328
-0.053508483 -0.02941771 -0.07064547 -0.035614498 -0.087890595 -0.16030668 -0.38456693 -0.31167045
-0.31275362 -0.24064092 -0.055626594 -0.06641075 -0.2005194 -9.377874e-05 -0.08085243 0.032379694
-0.07153094 -0.15699604 -0.086293355 -0.33704612 -0.21483053 -0.17421691 -0.13710788 -0.038600534
-0.37449962 -0.21161023 0.011464489 -0.07768709 -0.055904828 -0.29889014 -0.23730862 -0.24515872

septimbre_amt.encoder.early_conv.0.weight f4 [16, 8, 5, 5]
00000000: 365f b83d 62c3 643d 785c 4e3c 481f 02bd
00000010: 33b5 11bd 7f05 ec3c c2af 1f3d 7f6f 85bd
00000020: 57e2 533d 1799 913d 22f4 f83c e241 1cbd
00000030: c5c8 20bc 2df0 65bc f5e6 b23d cae7 1ab8
00000040: de6a 1d3d 268a 673c 0b52 a3bc 4aa2 7a3d
00000050: 1ba7 663d e30b 19bd c799 0c3d e455 0c3d
00000060: e354 633c d93a b2bc 7696 80bd b7fd 64b9
00000070: 7bdc f1bc bdc3 a1bd 921e 133d c30a 533d
00000080: e40f 2abd b74c d7bc 1dee 4a3d 5e60 c63c
00000090: 3313 343d c837 343d d538 d5bc 63c3 e23b
000000a0: 1e4e d2ba 43f1 97bc 3d6d 57bc 2aec 78bd
000000b0: 3933 563d b11f f63c b969 23bc f95e 17bb
000000c0: 8407 70bd c17e da3b 2ac6 5bbd 0137 87bd
000000d0: 9c2f 263d fa61 343c 67f5 81bc e979 13bd
000000e0: b6d0 72bd df9c 26bc a94e 7ebc c816 0a3c
000000f0: 8723 38bd 1ad2 cabc 1f85 cc3a 42ef 7dbd
00000100: 1cce 5cbd 7328 5e3b 4cf7 533d 92fc 2a3c
00000110: e902 02bd 391c 7abd 7f68 2d3c 2c78 d9bc
00000120: 18d8 d2bc 70bf a53c a958 3b3d c08f 7dbb
00000130: 9394 453d 0624 3e3d a077 dabc 612b b03d
00000140: b053 c7ba c01e 733c 9c1d 53bc cce5 9e3c
00000150: f2b7 5ebc 6763 c0ba c61f a63c fa55 4d3d
00000160: 3e3d 60bc 70a4 763d 674f fabc 0c5f ffbb
00000170: eab1 59bd 7e1c 863c f633 18bd fb3a e5bc
00000180: db47 61bd 293f a1bd 79a7 37bb 5e80 323a
00000190: 19c1 7abc 11a9 583d 6ae2 29bc 003b 3e3a
000001a0: 8b18 513d 6f69 083d 5985 4a3d af57 b73c
000001b0: e1d0 2b3d d76d 7b3c 58c8 b63c 6232 613d
000001c0: 959c b63c 1e91 5c3d 59be 923d 8951 053b
000001d0: 6f4d 18bd 91f6 aa3b 063c 38bd 59c2 263c
000001e0: 74c7 f0bc c4f6 32bd 91c6 9bbd fac0 1d3c
000001f0: 67a7 41bd 22ab 4fbd ec1f da3c 08ac 2c3d
00000200: 33e7 14bd 59a5 42bb d21b a7bb bb5c 183b
00000210: 5a83 d73c 93fc 2ebd 3e7c 30bb 4bbd 5bbd
00000220: 9d40 453d 1c95 973c 8015 bdbc 6378 32bd
00000230: 6a1a 5b3c c0b8 a5bd dcea 153c a3aa b3bd
00000240: c79a 51bc 48ef 62bd 5601 96bd 3e10 2ebd
00000250: 6fb3 923c 7d0b 63bd 9307 aabc 4f85 8bbd
00000260: e20e d1bb f45c 8fbd c71c 9cbd 984a a23c
00000270: 82e6 12bd 8af2 25bd 17e3 5a3c 65f0 32bb
00000280: 70f7 acbd b005 4d3a 12e4 93bc 9da7 3dbc
00000290: ef00 4fbd 5d5e 433c de96 173d 3488 fc3b
000002a0: ff5c 253d 9c8e 9fbc 0f44 4d3d 197a 5f3c
000002b0: 528a c53d f7e8 bd3d 8177 ca3a 0246 8e3d
000002c0: 2916 093e 7665 dd3d 6a1b 1f3e c318 ab3d
000002d0: ba80 a03d 3764 183d 3855 b23d 6c3f 903b
000002e0: 108f 973d 89d9 ed3d f6c1 f53d 9a1d 133e
000002f0: 1a29 ba3d c789 6e3d e8cb af3d 0704 953d
00000300: 64d2 e23d 7d1a 993d 0cfc 443d 7060 b53d
00000310: 8924 b83d a72a 213e 6b6c f13d 64e4 263e
00000320: 56d6 a1bb f81f 313c bde5 343d 6e10 453c
00000330: 7823 a3bb 88f4 1cbd e4fd 0dbc 6d43 e13c
00000340: 2026 b0bc 0885 5bbd f63a b2bc 0be8 35bd
00000350: 7fc5 a33c 6539 4bbd fcaf 22bd 6465 b0bc
00000360: c679 653d 271e 76bd 6f7e 90bd ae42 233c
00000370: 2c1c 5cbd 31a8 f33c d7da 34bd 2a93 26bd
00000380: 65b1 f6bc 8c9a 913c 66e7 adbc da64 613d
00000390: 4ce0 89bb 5af7 803b adad 2d3d a0fc 6fbd
000003a0: 6a61 913d 7375 45bc d828 75bb 2a5a c33c
000003b0: 3451 c5bc fd4a 203d d15c 84bd 86c2 003c
000003c0: 7ec6 a13d bb04 923d 091a 383c 7fde 7b3d
000003d0: 8d56 f0bc db72 da3d 3fee 12bd 294b 7cbc
000003e0: 5570 3a3d 8b9b 283d d40c a03d 79bd f9bb
000003f0: cefe 503d 19a8 003c 4223 a03d 8d46 73bc
0.09002535 0.055850394 0.012595288 -0.031768113 -0.035573196 0.028811214 0.038985975 -0.06515407
0.051729526 0.07109278 0.03038985 -0.03814877 -0.009813492 -0.014034313 0.08735458 -3.693233e-05
0.038431995 0.014132058 -0.019936582 0.061189927 0.056311708 -0.03736485 0.03432634 0.0342616
0.013875219 -0.021756576 -0.06278698 -0.0002183829 -0.029524079 -0.07898662 0.035917826 0.051523935
-0.04151906 -0.026281698 0.04954349 0.024215873 0.043963622 0.04399851 -0.026028076 0.0069202646
-0.0016045009 -0.01854766 -0.013148603 -0.0607721 0.052294943 0.030044409 -0.009973937 -0.002309738
-0.058600917 0.0066679423 -0.05365578 -0.06602288 0.040572748 0.011009688 -0.015864087 -0.036004934
-0.059281074 -0.010169237 -0.015521684 0.008428283 -0.044955757 -0.024758387 0.0015603638 -0.061995752
-0.0539075 0.0033898621 0.051749513 0.010436194 -0.031741057 -0.06106207 0.010583996 -0.02654656
-0.025737807 0.020232886 0.04573885 -0.0038690418 0.048237395 0.046421073 -0.02666837 0.08602024
-0.0015207436 0.014838874 -0.012885477 0.019396685 -0.013593661 -0.0014678062 0.020278823 0.05013082
-0.013686476 0.060215414 -0.03055544 -0.007793313 -0.053148188 0.016371008 -0.03715893 -0.027982226
-0.055000167 -0.07873375 -0.0028023405 0.00068092893 -0.015304827 0.05289561 -0.010368923 0.00072567165
0.051048797 0.033303674 0.049443576 0.022380678 0.04194725 0.015346012 0.022312328 0.05497969
0.022291461 0.053849332 0.07165212 0.0020342788 -0.03718322 0.0052173813 -0.044979118 0.010178172
-0.029391982 -0.043692365 -0.07606233 0.009628529 -0.047278788 -0.050700314 0.02662655 0.04215625
-0.0363533 -0.0029700606 -0.005099752 0.002324863 0.02630775 -0.042721342 -0.0026929523 -0.05364732
0.048157323 0.018503718 -0.023081541 -0.04357184 0.013372997 -0.08091879 0.009150233 -0.08772781
-0.012793249 -0.055403978 -0.073244736 -0.04249596 0.017907826 -0.055430878 -0.020755565 -0.06812536
-0.006379948 -0.07000151 -0.07622676 0.01981096 -0.03586436 -0.040514506 0.0133598065 -0.002730393
-0.084456325 0.0007820977 -0.018053088 -0.011575607 -0.050538 0.011924353 0.037009113 0.0077066664
0.04037189 -0.019477181 0.050113734 0.01363995 0.09645523 0.0927295 0.0015446992 0.06946947
0.1338736 0.10810368 0.15537801 0.08354332 0.07837053 0.037204947 0.087076604 0.0044020917
0.07400334 0.11613757 0.11999886 0.14366761 0.09089871 0.058236863 0.08583814 0.07276159
0.11075285 0.07475755 0.048091933 0.088562846 0.089913435 0.15738927 0.11788257 0.16298062
-0.004938881 0.010810845 0.044164408 0.012027843 -0.0049785934 -0.03831914 -0.008666489 0.027497971
-0.021502554 -0.053593665 -0.02175663 -0.044410747 0.019991634 -0.049615283 -0.039718613 -0.021532722
0.056024335 -0.06008735 -0.07055365 0.009964628 -0.053737804 0.029743286 -0.044154014 -0.04066769
-0.030113885 0.017773889 -0.021228503 0.05502782 -0.0042076465 0.0039357366 0.04240196 -0.05859053
0.070986584 -0.012051928 -0.0037408378 0.023846705 -0.024086572 0.039134014 -0.06463016 0.007858878
0.078991875 0.071298085 0.011236676 0.061491486 -0.029338146 0.10666438 -0.03587174 -0.015398779
0.045517284 0.041163962 0.07814947 -0.007621464 0.05102425 0.007852578 0.07819225 -0.014848364

septimbre_amt.encoder.early_conv.0.bias f4 [16]
00000000: d267 61bd 446d 1d3e 99a2 50be b707 533e
00000010: 28df e83b 00ae 273d d299 a83d 126a 99bd
00000020: a11e 2ebe 7af5 3bbd 66ab 2a3e 643e c53d
00000030: c5ae 593d 4b85 81bc ae54 5bbc 5aa5 0e3d
-0.05503065 0.15373713 -0.20374526 0.20608412 0.0071066804 0.040937424 0.08232464 -0.074909344
-0.17003872 -0.0458884 0.16666946 0.09631041 0.05314519 -0.01581063 -0.013386888 0.03482566
